app/classifier/saved_model/digit_classifier.tflite (tflite, 489368 bytes, 8 tensors)

sequential/dense/BiasAdd/ReadVariableOp f4 [65]
00000000: 1103 39bd c368 acbc 83af 80bb 019b 143d
00000010: 96f0 cdbb f510 48bd 1a88 46bb 631a 13bd
00000020: a820 0ebd eade 34bd 9144 c7bd 333e baba
00000030: b3a1 aabd 55d6 cabd 1cf1 883d 6ce9 2f3e
00000040: f2fa 72bd 8d5c 04be b597 65bd 0d44 fd3d
00000050: a0c1 083d 54cb fcbc 5020 8b3d db78 25bc
00000060: 85b9 f5bc 75bd 70bd 0648 273e 8a7d 06be
00000070: ecb8 5a3b 8d9f 453d 66f7 84bc 4189 b7bd
00000080: 1ac8 743c 3048 3b3d 59b0 413e fe38 1dbd
00000090: 2cbf 9fbd e066 d03c 981d ecbb d824 bbbd
000000a0: 9274 883d c600 df3c 2d1c 00bc 1222 77bd
000000b0: 2d88 09be c4cd e33c 3727 aebc 0cc9 06bd
000000c0: 49a2 ac3c 8212 69bd 1c8e c83d 6d08 28be
000000d0: f66f 57bc 0020 8a3c f3db 5fbd 9313 7bbc
000000e0: a7bc 2dbc 4fe9 323b 9281 6bbd eca9 973d
000000f0: d54b e0bc 4f7b a93d e75c 06bd 57f4 513b
00000100: f499 2ebd
-0.04516894 -0.021046048 -0.0039271726 0.036280636 -0.0062847836 -0.048844296 -0.0030293525 -0.035913836
-0.034699112 -0.0441579 -0.09729875 -0.0014209211 -0.08331623 -0.09904162 0.06686613 0.17178887
-0.05932135 -0.1292593 -0.056052882 0.12366495 0.03338778 -0.030858673 0.067932725 -0.010099615
-0.02999569 -0.05877443 0.16336069 -0.13133827 0.0033374382 0.048247863 -0.01623125 -0.08961726
0.014940286 0.04572314 0.18914928 -0.03838443 -0.07800135 0.02543968 -0.0072056763 -0.09137887
0.06662859 0.027222048 -0.007819218 -0.060335226 -0.13430853 0.027808078 -0.021258933 -0.032906577
0.021073477 -0.056902416 0.0979273 -0.16409464 -0.013149252 0.016860962 -0.05465312 -0.015324491
-0.01060406 0.0027299707 -0.057496615 0.07405457 -0.02737991 0.082754724 -0.032803442 0.0032036507
-0.04262729

sequential/dense_1/BiasAdd/ReadVariableOp f4 [10]
00000000: c166 113f b27d 263f cd43 5b3d 8f63 cfbe
00000010: c915 b2be bd22 f8be d68d cabe 25aa 363e
00000020: 7ed4 023e 418f 973c
0.56797415 0.65035546 0.053531457 -0.40505645 -0.34782246 -0.48464003 -0.39561337 0.17838342
0.12776372 0.018500926

sequential/conv2d/BiasAdd/ReadVariableOp f4 [60]
00000000: 5a5b 68be c04e 79bd 2069 18be a0e7 b3bb
00000010: 03b3 20bc c19d 91bc 6d53 cabd 686c 8abb
00000020: 0084 3c3c 63b1 10be 160e 9cbc 5724 fdbd
00000030: acff 5a3d 4aa9 8fbc 89e3 d5bc 3701 0bbd
00000040: fff4 83be 1c16 3dbe ec9b 63bc b29b 85be
00000050: cf96 78be a7c6 f2bc 2ab1 b0bd 070d 00bd
00000060: 9517 07bd 5727 56bd afb5 10be 051f 9abd
00000070: 2bbb c1bd c5ba 5cbe 7021 babc e7ce 61bd
00000080: 5c2a e7bd 4b17 70bd bd8b d8bc e968 4fbe
00000090: e4c9 50bd da30 99bd 723c 22bd 9110 8bbc
000000a0: 2202 25be 8235 12be dfcc 96bd 79ef 33be
000000b0: d966 d1bd b086 07ba 3155 a1bd 76dc ec3b
000000c0: 919a 94bd 3f4e f2bc 990a 4dbd 7195 85bc
000000d0: da5e 15be bd8f 86bc ec26 2fbe d018 53be
000000e0: 677f 09bd 551e 0bbe 15e3 5dbd 6d28 763c
-0.22691098 -0.060866117 -0.14883852 -0.0054902583 -0.009808305 -0.017775418 -0.098791935 -0.004224349
0.011506081 -0.14130168 -0.019049685 -0.12360447 0.053466484 -0.017536778 -0.026109474 -0.033936705
-0.25772855 -0.18465465 -0.013892155 -0.2609535 -0.24276279 -0.02963574 -0.08627541 -0.031262424
-0.032981474 -0.05228361 -0.14131807 -0.07525448 -0.094595276 -0.21555622 -0.022721022 -0.055128958
-0.11287376 -0.058615964 -0.02643382 -0.20254864 -0.050973788 -0.07480021 -0.039608426 -0.016975673
-0.16114095 -0.14278224 -0.07363295 -0.1757182 -0.10224695 -0.00051699113 -0.07877577 0.0072284294
-0.07256044 -0.029578326 -0.050058935 -0.01630661 -0.14586964 -0.016425962 -0.17104691 -0.20614934
-0.033568766 -0.1358579 -0.05417164 0.015024287

sequential/conv2d_1/BiasAdd/ReadVariableOp f4 [32]
00000000: 94d1 1abb d361 94be dc28 bd3c cb92 a9bd
00000010: 280d 18be 0b13 51bc 0841 e2bd ccdb d03c
00000020: 5660 9d3c 20b8 88be 6961 b6bc b165 1dbd
00000030: 99e3 bcbc 24a7 72be 4cf7 0abd 065a 6ebc
00000040: 161d 6eba 8a02 d9bc ccb4 51bc 9413 c0be
00000050: 677e 3ebe 30f6 98bc 24ce 9cbd c971 f5bd
00000060: 46a3 47bd aace 0dbe c4ff e6ba e0ee 4b3d
00000070: 837a 183d 6e75 383c 7595 04bd 3fe9 3cbe
-0.0023623453 -0.28980884 0.023090772 -0.08279952 -0.14848769 -0.012760888 -0.1104756 0.025495432
0.019210976 -0.26702976 -0.022263246 -0.03842706 -0.023057746 -0.23696572 -0.033927247 -0.01454783
-0.00090833136 -0.026490469 -0.012799453 -0.37514937 -0.18602906 -0.018672079 -0.07656506 -0.119845934
-0.048739694 -0.13848367 -0.0017623832 0.049788356 0.03722621 0.011258466 -0.032369096 -0.18448351

sequential/dense/MatMul f4 [65, 1568]
00000000: 74a8 1ebc 4be8 b1bd a832 053d c0fc 55bc
00000010: 392c 2bbd a02b 093c 00ad ab3a 6d7b 3ebd
00000020: 10dd 76bc 3c00 34bd 7bac 5a3d 0c17 58bc
00000030: 6abe 693d edc1 583d 828f 083d e5c4 b1bd
00000040: a60d 663d 5e15 1fbd da54 1fbd e7b9 bebc
00000050: 7a16 9fbc a9c2 2fbd 6a57 b43c 1c4b 05bc
00000060: 366e 2abd 97e4 3cbc e13d 84bc d663 cdbc
00000070: 082d 443c 1482 9fbc 277b 55bd 3f0c f0bb
00000080: 14f9 473d 494e 58bd c0ed 0cbb 9057 863c
00000090: f85c e1ba aeb5 e6bc 13f0 40bd bcc2 9f3d
000000a0: af9e 6c3d 4cc3 68bc c147 20bd 1a04 743a
000000b0: 9045 21bb 353d 82bd 39be 96bd 2a5b 38bd
000000c0: 661f 8e3d 4b0b 76bd ca94 16bd a4ae 42bb
000000d0: 80ac ccbd aa90 993d 8fc1 80bc 83b2 43bd
000000e0: 1c24 953c 44b8 803d 8427 923b 7842 1f3c
000000f0: a866 14bc e158 a63c 3c51 2a3d d08e 6fbc
00000100: 40b1 f1ba 859f 92bb 30c6 82bd fa52 343d
00000110: 38fe afbc b8c7 47bc 3bed 45bc 2848 533d
00000120: 628b 743d 72af 16bd 0659 e43c cea8 013c
00000130: 2189 c03c 9b6b eb3b 9dcb 19bb 5a84 4cba
00000140: 350f 3dbc 8f3e 733c efa7 073c 4964 b0bd
00000150: 32d4 51bc fe03 613d 7ec4 a5bc 84f1 71bd
00000160: 6472 2b3d 90db 253d 7eef 88bd 5e36 42bd
00000170: 439b 42bd a48a 873d 7861 a83c c198 a5bd
00000180: 982b 2dbd c9aa 13bd f6c7 bfbd 835e 55bd
00000190: b730 a8bc 924c 4e3c ed5a 56b8 4415 843d
000001a0: 0f79 6dbd 3c05 c93b 4ab2 763d 3610 cb3c
000001b0: cb8a b0bc 3625 4cbd d97c 0a3c 39cc 503c
000001c0: 49b1 343c 09df 613d 797a 06bc 31f3 adbc
000001d0: 1f41 003d f3eb df3c 8aea 08bd e7fc 0d3b
000001e0: e1d4 b7bc 64fa 4e3d 21e8 caba fa20 51bc
000001f0: 2ace ccba 3052 4cbc b8f3 743c 5ebb f5bc
00000200: 9baa 5c3b 54aa 513a 9837 04bd 4093 4d3b
00000210: 8aab e03c e80a 62bd dc3c 6a3d b1ae 0cbc
00000220: 0996 b8bd d8e4 b9bc bf6c 98bc cc33 82bd
00000230: e2f2 a63d 05ec 67bd c7f2 05bd b6e6 a53c
00000240: efbc 19bc d6de d5bc bd4b 7bbd 4937 01bd
00000250: 2f02 9ebd 47ed adb9 d08a 93bd 8461 88bb
00000260: f465 9c3d 163a 7fbd e2ee 18bd 4755 4f3c
00000270: 5c20 063d 5db9 2abc d88d adbb 0c1a 2ebd
00000280: de41 87bd 9a30 123c 31b9 d4bc d8c2 89bb
00000290: febd 88bc 14e3 22bd c611 5f3d 3271 8dbd
000002a0: 93b8 33bd 1bbf 6dbc d63d 0bbd c04a 7b3c
000002b0: 4dfe e3ba 5af6 55bd b298 81bc 62c6 7ebc
000002c0: e8c7 69bd 5ab8 0abd 8d58 043c 87ff 91bd
000002d0: 29b2 af3c 2769 1e3c abc6 e6bc 8648 163c
000002e0: e23b 973c 9598 d93b c9c4 9fbb a579 80bd
000002f0: 7955 e7bd 92f0 45bc e09b 653b d04a c9ba
00000300: b101 54bd 0807 46bd ba41 ccbd a9ea fbbc
00000310: a0e7 7b3c 9b89 a3bd 80c8 273a 746d c73c
00000320: fc4c 88bd 2eaa 8abd ad70 05bc 4103 31bd
00000330: 4417 a33c df44 15b9 96a0 633d ba3f 6abd
00000340: ec3d 1f3d ec21 4cbd d2bf 433d 736b 183d
00000350: 2091 0dbb 207a ed3c 2bb1 383c 8763 36bd
00000360: 1695 5c3d 67f9 a3bd b961 4ebd e3c8 c1bd
00000370: 9934 b53c 339e 133d 3534 63bd e4a5 97bc
00000380: 8637 773c 4615 c33b 7dbd 87bd 28be 62bc
00000390: 2dde f93c a11c 95bc 3ecb bbbd da15 7c3c
000003a0: 7fe4 073d 922b 023d 5077 ea3c deea 983d
000003b0: 63f0 60bc 9d11 03bc 13e6 e83b 1c90 88bd
000003c0: 1616 233d 7504 b63c 82be 9cbd 568f 83bd
000003d0: 251c bd3c b509 22b9 d150 26bd 7d64 31bd
000003e0: f8fb 64bb fc13 5cbd 8f18 603c 9bfc 9e3d
000003f0: db69 793d 5efa 24bd 6175 273d ad82 2dbd
-0.009683717 -0.086868845 0.032519013 -0.013060749 -0.04179022 0.008372217 0.0013097823 -0.046504427
-0.015067354 -0.043945536 0.053387146 -0.013189089 0.05706636 0.052919317 0.033339985 -0.08680133
0.05616536 -0.038838737 -0.03889928 -0.023282005 -0.019419897 -0.04291025 0.022014339 -0.008135583
-0.04160901 -0.011529109 -0.016142787 -0.02507202 0.011973627 -0.019471206 -0.0521194 -0.0073256786
0.048821524 -0.052809034 -0.0021504015 0.016399175 -0.0017193845 -0.028162804 -0.047103953 0.078008145
0.05776852 -0.014206719 -0.03913093 0.00093084725 -0.0024608113 -0.063593306 -0.07360501 -0.045008816
0.069395825 -0.060069364 -0.03676299 -0.0029706145 -0.09993839 0.074982956 -0.015717296 -0.047777664
0.018205695 0.06285146 0.004460277 0.009720437 -0.009057678 0.020306053 0.041581377 -0.0146214515
-0.0018439665 -0.0044745826 -0.063854575 0.044024445 -0.021483526 -0.012193613 -0.012080486 0.051582485
0.05970324 -0.03678841 0.027874481 0.007913781 0.023502888 0.0071844584 -0.002346731 -0.00078017043
-0.01153927 0.014846458 0.008279785 -0.08612878 -0.012806939 0.054935448 -0.020235296 -0.059068218
0.04185714 0.040492594 -0.066863045 -0.04741513 -0.04751135 0.066182405 0.02055429 -0.08085776
-0.042277902 -0.036051545 -0.093643114 -0.052092087 -0.020531042 0.012591498 -5.1106257e-05 0.064493686
-0.05797678 0.006134657 0.060228623 0.024788003 -0.021550557 -0.049840175 0.008452618 0.012744003
0.011028596 0.055144344 -0.008207911 -0.021234127 0.031312104 0.027334189 -0.0334268 0.0021665634
-0.022440376 0.05053176 -0.0015480557 -0.01276421 -0.0015625407 -0.012470767 0.014950685 -0.02999657
0.0033671025 0.0007998098 -0.03227958 0.0031368285 0.027425546 -0.055186182 0.057186946 -0.008586572
-0.09012992 -0.022692129 -0.018606542 -0.06357536 0.08151795 -0.05662157 -0.032702234 0.020251613
-0.009383424 -0.026107233 -0.061351527 -0.031546865 -0.0771526 -0.00033173917 -0.07204211 -0.0041620154
0.076366335 -0.062311254 -0.03733719 0.012654609 0.032745704 -0.010420171 -0.00529645 -0.04250531
-0.0660436 0.00892272 -0.025967212 -0.0042041354 -0.016692158 -0.03976734 0.05446031 -0.06906356
-0.043877196 -0.014510895 -0.03399452 0.015337646 -0.0017394513 -0.052236892 -0.015819881 -0.015550228
-0.05707541 -0.033867218 0.008077753 -0.07128816 0.021447258 0.009668625 -0.028170904 0.009172564
0.018461172 0.0066405036 -0.0048757535 -0.06273202 -0.112955995 -0.012081282 0.0035035536 -0.0015357379
-0.051759426 -0.04834655 -0.09973474 -0.030751543 0.015375048 -0.079852305 0.0006400421 0.024344184
-0.066553086 -0.067707404 -0.00814454 -0.043215994 0.019908555 -0.00014235404 0.05557307 -0.05718968
0.038877413 -0.049837038 0.047790356 0.037211847 -0.0021601394 0.028988898 0.011272709 -0.04452851
0.053853117 -0.08006554 -0.050386164 -0.09462144 0.022119807 0.036039542 -0.05546971 -0.01851172
0.015088921 0.0059534637 -0.06627939 -0.013839282 0.03050145 -0.018202128 -0.09169625 0.015386069
0.033176895 0.031779833 0.028621346 0.07466672 -0.013729188 -0.007999805 0.007107505 -0.06668112
0.039815985 0.022218922 -0.07653524 -0.064238235 0.02308471 -0.0001545314 -0.040604416 -0.043308724
-0.0034940224 -0.053729996 0.01367773 0.077630244 0.060891967 -0.04027783 0.040883426 -0.04236095

sequential/dense_1/MatMul f4 [10, 65]
00000000: 1223 153e 9bd2 5bbe 49a6 32be f97e 383e
00000010: 23f0 a1be dce8 a0be aeaa 00bf d6e9 92be
00000020: 3334 7d3e 371e 213d b385 4bbe 9da4 523e
00000030: 89d1 89be 98f0 663e 8a18 8dbe 586f a1be
00000040: 1596 babe 5ae9 90be 73ce 443e 0483 c23d
00000050: df42 aebe 50ec 9d3d 3a0c 65be 70fe 1bbf
00000060: dd48 443e 0c1d ee3b b487 5f3e af28 7cbe
00000070: c13c 1ebf d342 c4be 28a1 ebbe 78da 843e
00000080: 95fa b5be c556 9c3e 7a71 e4be 8775 973e
00000090: 5316 e5be 7cf0 a7be 4771 2dbe 5f08 f8be
000000a0: 67b8 603e cd8a a0be bb78 723d 4def 2d3b
000000b0: 9571 a23e d146 84be 86b4 73be 3faa 2abf
000000c0: be04 a9be 0447 36bd b891 813e 5b31 c73c
000000d0: d4b2 60be 3d3a 883e 5009 16bf 6f89 583d
000000e0: 53da c63d 6025 b7be 2998 5d3e d856 f7be
000000f0: 1c49 b0bc b179 97be c88d 39be dc3b cfbe
00000100: 479e f7be d5ae 5a3e e28d 5abe 127c 5e3e
00000110: a396 9fbe d082 7dbe 8fbc 24bf 237a 553e
00000120: 2a8f 533d dcf7 d83d 170e 943e ad1f 043e
00000130: 8637 8ebe e42b 153e d71f 133e 424a d3be
00000140: ea53 c3be 2fea 923d 5dbf 8bbe faf4 00be
00000150: a002 03bf 9d99 43be bccf 40be b63e a33e
00000160: bffd 363e 0df4 2a3e 8b59 6f3e 5ae0 17bf
00000170: bc7b 85be 6526 4d3e 8494 c9be dbd2 4b3e
00000180: 4a46 9fbe c839 1a3e c86e 8fbe 0de9 833d
00000190: b49c b1be 8dc7 94be afcd 0bbe 20e3 533d
000001a0: 95f5 403e 839c 613e 1c71 77be 5c6a c8bd
000001b0: a81f 593d 084e 04bf d043 56be 37d4 fbbc
000001c0: be12 053e 318c 9bbe 6715 e4be 38db d1be
000001d0: c274 6b3e a1f0 7f3e 9a5d 04bc 1798 08bf
000001e0: b173 203d 65b9 ea3d 0157 243e aa45 e4be
000001f0: c9a3 62bd 7898 1f3e 3037 2a3e ca6d 283e
00000200: f948 3ebd 03a9 e0be 4d1e 4abc 6b5d 94bc
00000210: 9597 923e 3f10 97be ee7f 2b3e 9f55 88bd
00000220: e574 07be c13d 5d3e 74bc 6dbe 2f5f 54be
00000230: b2f0 6b3b 28cd 353e 4d61 03be ab92 91be
00000240: e62b 493e 392d 21bc c543 d5be ca16 ff3d
00000250: 1781 28bf 41d5 d0be 7eb4 2b3e 6b3a 88be
00000260: 3617 a33e 7072 d6be aa80 653e 139f c9bd
00000270: 5854 adbe 8fff 813e b867 2ebe 2743 debd
00000280: ffa4 74be c492 23be 3009 a7be a1d2 8cbe
00000290: 1e88 aebe 2470 803e ad6c 83be 149e 413e
000002a0: 8ef9 413e 78d5 7ebe 6606 663e f7cd c1be
000002b0: 4161 873e 038f 8a3d f7c1 45bc 2bdf 7bbe
000002c0: 1a9a 10be 6284 dabe 8fa7 dcbe 78ff b0be
000002d0: 0aea 41be 7cfc 7dbe 600d 83be a391 68be
000002e0: d654 c0be 6c47 0ebe 9f94 e8bd d755 3e3e
000002f0: 17d9 653e ddcd 533e 5fe6 063e 96b5 f3be
00000300: dd3c 1b3e b76b e7bd e759 93be d57c 1a3e
00000310: a38f 353c dd1e 8a3e 6a4d 4fbe 7dd9 11bb
00000320: ecc7 92be c8ae 623e 763c 8abe 3f96 753e
00000330: ef83 c1be c1d8 8fbe ee7f 8cbe ecdf 85be
00000340: 88a2 07bf 44a0 eabe b19a 79be 4774 4f3e
00000350: b541 0f3e 06be 48be e76f 473e 8a9b 443e
00000360: efdb 55be eaef 07bd e5cb cbbe 901f 353e
00000370: 42fb 0fbe 25fa 0dbf 4b24 843e 832c 44bf
00000380: 9388 8b3e bfe0 7f3e ae45 80be 38e7 8cbe
00000390: b0fa 01be 9849 aabe 1237 f0bd b329 67be
000003a0: a693 15bd 8aec 43bc 20bf 463e e913 bcbe
000003b0: b130 5f3e 130f 223e 1e8d 1f3e 04cd 833e
000003c0: da8e a0be b84a 9dbc 27ea e93d 571c 96be
000003d0: 840a 193e ff40 ecbe 56fe eebe 5c67 823d
000003e0: c61a 06bf dba9 353e fbd4 44be bf1d 9a3d
000003f0: 3f89 e8be bf2d 173e b4d2 483e 9322 b9bd
0.1456416 -0.21467058 -0.17446245 0.18017186 -0.31628522 -0.31427658 -0.50260437 -0.28694028
0.24726944 0.039335456 -0.19875221 0.20570607 -0.26917675 0.22552717 -0.27557784 -0.3153026
-0.36442629 -0.28303033 0.19219379 0.094976455 -0.34035394 0.07711089 -0.22367945 -0.60935116
0.1916842 0.0072666463 0.2182911 -0.24624895 -0.61811453 -0.38332233 -0.4602139 0.25947928
-0.3554274 0.3053495 -0.44617826 0.29581854 -0.44743595 -0.32800663 -0.16937743 -0.48443887
0.21945344 -0.31355897 0.05919717 0.002654034 0.3172728 -0.2583528 -0.23799333 -0.66666025
-0.3301143 -0.04450132 0.25306487 0.024315527 -0.21943218 0.26606932 -0.5860796 0.052865442
0.09709611 -0.35770702 0.21640076 -0.48308444 -0.021519236 -0.2958503 -0.18120492 -0.40475357
-0.48362944 0.21355756 -0.21343186 0.21727017 -0.31169614 -0.24756932 -0.6435022 0.20847373
0.051650204 0.105941504 0.28917 0.12902708 -0.27776736 0.14567524 0.14367615 -0.41267592
-0.3814996 0.07173573 -0.27294436 -0.12593451 -0.5117588 -0.19101568 -0.18829244 0.31883782
0.17870234 0.1669466 0.23374002 -0.5932671 -0.26070964 0.20034178 -0.3937112 0.19904654
-0.31108314 0.15061104 -0.28014207 0.06440935 -0.34689867 -0.29058495 -0.13652681 0.051730275
0.18843682 0.2203236 -0.24164242 -0.097859114 0.053008705 -0.51681566 -0.20924306 -0.03074084
0.12995431 -0.30380395 -0.4454758 -0.40987563 0.22993758 0.24994136 -0.008078957 -0.5335707
0.039172832 0.114611425 0.16048814 -0.445844 -0.05533198 0.15585506 0.16622615 0.16448131
-0.04645631 -0.43878946 -0.012336326 -0.018110951 0.28631273 -0.29504582 0.1674802 -0.06656956
-0.13228185 0.21605588 -0.2321642 -0.20739435 0.003600162 0.17754042 -0.12830086 -0.2843221
0.19645652 -0.009837442 -0.41653267 0.124555185 -0.65821975 -0.407877 0.16768071 -0.2660707
0.31853646 -0.41884184 0.22412363 -0.09844794 -0.33853412 0.25390288 -0.17031753 -0.10852652
-0.23891066 -0.15973955 -0.32624197 -0.27504447 -0.34088224 0.25085557 -0.2566885 0.18907958
0.18942854 -0.2488612 0.22463378 -0.3785245 0.26441386 0.067655586 -0.012070171 -0.2459685
-0.14121285 -0.42679125 -0.43096587 -0.34569907 -0.18936935 -0.24803346 -0.25596142 -0.22711806
-0.37564725 -0.13894433 -0.11356472 0.18587433 0.22446094 0.20684 0.13173817 -0.47599477
0.15159936 -0.11299842 -0.28779528 0.15086682 0.011081609 0.26976672 -0.20244375 -0.0022254877
-0.28668153 0.22136986 -0.26999253 0.23983096 -0.3779597 -0.28095058 -0.27441353 -0.261474
-0.5298238 -0.45825398 -0.24375416 0.202592 0.13989909 -0.19603738 0.19476281 0.19199958
-0.2088468 -0.033187784 -0.39803997 0.17687821 -0.14060691 -0.55459815 0.2580894 -0.7663042
0.27252635 0.24988078 -0.2505316 -0.27520156 -0.12693286 -0.33259273 -0.11729254 -0.225745
-0.03651776 -0.011958251 0.19408846 -0.3673394 0.21795918 0.15826063 0.15581176 0.25742352
-0.31358987 -0.019200668 0.11421614 -0.29318497 0.14945418 -0.46143338 -0.46678418 0.063673705
-0.52384603 0.17740576 -0.1922187 0.07525205 -0.4541721 0.14763544 0.19611627 -0.09039798

sequential/conv2d/Conv2D f4 [60, 5, 5, 1]
00000000: fa29 1d3e 6591 053e 7663 313d fafe 513d
00000010: dee3 14bd 2fd5 8fbe 292e 31be 31e5 edbd
00000020: d736 27bb 0e5c 8b3a 71eb aabe e09c 17be
00000030: 0cd8 c23b e93f 0bbc 10d3 54be d2c0 94be
00000040: fe78 a5be bd80 fbbd 589a 813d d07b 09be
00000050: 07fb 33be 4803 50be bdd6 23be fe85 4fbd
00000060: cc67 35be 629f aabe 4588 bdbd 8544 fe3b
00000070: 1e6b 543d 7dd3 eb3d 69ae 88be 3a75 4ebd
00000080: 2201 0b3d 9163 1bbd f35c f43d f562 9bbd
00000090: 89f6 8d3d 3c79 f53d 5e47 dd3c d5a0 733c
000000a0: 009e 71bd a735 ad3d fd25 86bc 0aff 923c
000000b0: 6e14 7cbe aca6 f7bd 845e 73be 55ff b6be
000000c0: d425 62be 4e35 8bbd f5fa cfbe 16f4 ccbd
000000d0: c2e9 27be 92b2 3f3d f359 d8bc 8d69 90be
000000e0: c534 7c3d 7f8b 573d 3bc4 89bc e8ef 29be
000000f0: 150c 873c b0a6 253e aa78 533d fc67 7ebe
00000100: 798f 8fbe ec36 8d3d 41d1 6e3e 0952 92be
00000110: a43e cdbe b0c6 00bf 766f c93d 8045 fa3d
00000120: 3deb 3abd fae6 dc3d 6877 523e 5b8e 1a3e
00000130: 5260 4cbe 688a 53be e75e 96bc 0627 64bd
00000140: 43cc 48be 5ff1 b3be ef89 e03d cba8 ab3d
00000150: c3fb 41bd 9250 2cbd fcfd d83d 8f1d c13e
00000160: 6b56 0cbb 7740 42bd 4fec 68bd fc96 e63d
00000170: 4aba bb3d b5da 02bf 97a1 d9bd 54db d5bc
00000180: b34f 723c 69d6 59bd 22ac 2cbe 2274 1a3e
00000190: 510a c13d f41f 15bd 2135 3e3d 160a 153e
000001a0: 7ec3 5e3e fcef d0bd deab 1dbd 0214 f1bd
000001b0: b45e a53c 35ae 8c3d 3125 2bbe 213c 7bbe
000001c0: 93f5 e3bd db63 16be 27e1 a6bd 25bb 96be
000001d0: 05d5 e7be be13 04bf 9e03 b8be 10ce cbbe
000001e0: 9b44 42bc 477c f9bd 276f 15bd bc2b dabc
000001f0: 0c36 3bbd 33e8 a4be eec2 adbc 4c8c d73d
00000200: f3c2 963c 0fb2 a33d 858e 26bd 0483 59be
00000210: 1161 9cbe 183c 46be 5fcc 77be 55ea 5f3d
00000220: b945 c33d 90b1 5c3d 8569 f73c 65c5 f8bd
00000230: 90ef 393d eb75 053e 996d 933d 8418 7d3d
00000240: 0b8b 163e 30a9 263e 81dc 873d a6a1 173e
00000250: c10e 2e3e 220f 173e 96d8 303e 66a0 f2bd
00000260: d8b8 5bbe 0f44 0fbe c747 ad3d 5fc1 523e
00000270: 3ba1 c8bd 8766 d1bd d867 03be 548a 583c
00000280: 28c8 3a3e 96f4 f7bc 0d2c adbe 2003 34be
00000290: 9584 843d 449f 80be 774d 11be e9c1 14be
000002a0: 425a 83be 7ea4 273c 0203 993d 1900 36bd
000002b0: 9269 23be a275 2cbe 8f6b f5bc b9ae 2ebe
000002c0: 1b20 f03c 314c 843e 0ea2 35be 901d 46bc
000002d0: eb7d febd a298 88bd ea4a 833e 8898 8bbe
000002e0: fe3d 91bd 89ca 71be c170 67be 57e6 333e
000002f0: 8c30 d8be 870e 7abd 281b 29be d60d 6fbe
00000300: 6d21 3c3e 6b9b a7be 5f9b c3bd a295 a03d
00000310: c654 2bbe cb10 6f3d e7f5 1dbe 261b fabd
00000320: 6719 12be 984a e5bd 077b b1bd 9177 19bd
00000330: 686d 3a3e d28d 9fbd 2950 463e 11a6 603c
00000340: b8e8 a1bc b746 81bc e288 6f3e c4a7 553e
00000350: d9ca 773d d082 6ebe 7910 5fbe f930 eb3b
00000360: 2d5b ce3c f4a8 71bd 79bf bcbe db25 48be
00000370: a593 bdbe 99fe 93be 057e a5be da0e ccbe
00000380: dde7 cbbe 033f dabd 4a51 473d 44db 3f3c
00000390: 5d74 d03c 7f11 09bb ae8b 94bd 3dca 0a3e
000003a0: 1be8 9c3b 4ca8 aab9 9a15 60bd 934f 143d
000003b0: 7614 113e aeb1 7ebd bde4 d9bc 213a b0be
000003c0: 5d68 4bbd eedb 123e 4adc 083e 885b ecbd
000003d0: bda1 77be cceb 973d a5a6 d93d 231f dd3c
000003e0: 9e53 2bbe f354 b9bd d4e2 cb38 b648 67be
000003f0: d530 86be 5c72 2dbe 2cc8 0fbe d334 623d
0.15348044 0.13043745 0.043307744 0.051268555 -0.036350124 -0.28092334 -0.17302765 -0.116159804
-0.0025514865 0.0010632293 -0.33382753 -0.14805937 0.005946165 -0.008499124 -0.20783639 -0.2905336
-0.32318872 -0.12280414 0.06328267 -0.13426137 -0.17576228 -0.20313752 -0.15999885 -0.050664894
-0.17715377 -0.33324724 -0.09254507 0.007759633 0.051859967 0.115149476 -0.26695564 -0.050404765
0.033936627 -0.03793675 0.11931791 -0.07587234 0.069317885 0.11986014 0.02701157 0.014869888
-0.05898857 0.08457499 -0.016375536 0.017943878 -0.24617168 -0.12092337 -0.23766524 -0.35741678
-0.22084743 -0.067972764 -0.40621153 -0.10007493 -0.16397765 0.046801157 -0.026410079 -0.2820553
0.061573762 0.05262327 -0.016817203 -0.16595423 0.016485253 0.16176867 0.051628746 -0.24844354
-0.28039148 0.06895241 0.23322012 -0.28578213 -0.40086854 -0.50303173 0.098357126 0.12220287
-0.045634497 0.10786243 0.20553362 0.15093367 -0.19958618 -0.20658267 -0.0183558 -0.05570128
-0.1960917 -0.3514509 0.10963809 0.08381804 -0.04735924 -0.042069025 0.10595319 0.37717864
-0.0021413814 -0.04742476 -0.056865986 0.11259267 0.09166391 -0.5111497 -0.10626524 -0.02610556
0.01478951 -0.053182993 -0.16862538 0.15083364 0.09425796 -0.036407426 0.046437386 0.14554629
0.21754262 -0.102020234 -0.038493983 -0.11771394 0.02018676 0.06869165 -0.16713406 -0.24534656
-0.11130824 -0.1468653 -0.08148413 -0.29439655 -0.45279709 -0.51592624 -0.3594026 -0.3980565
-0.011857177 -0.12181907 -0.036482956 -0.026632182 -0.04570584 -0.32208404 -0.021211114 0.105248064
0.018403506 0.07992946 -0.04066326 -0.21241385 -0.30542806 -0.19358861 -0.24199055 0.054666836
0.09534783 0.053880274 0.030201683 -0.12147025 0.04539448 0.13033263 0.071986385 0.061790958
0.14701478 0.16275477 0.06633855 0.14807758 0.16997816 0.14751866 0.17270121 -0.11847
-0.21457231 -0.13990806 0.08460956 0.20581578 -0.09796377 -0.10224634 -0.12832582 0.013216574
0.18240416 -0.030267995 -0.3382267 -0.17579317 0.064706005 -0.2512151 -0.14189707 -0.14527096
-0.256548 0.010232089 0.07471277 -0.044433687 -0.1595824 -0.16841748 -0.029958514 -0.17058839
0.029312184 0.2583938 -0.177376 -0.012092009 -0.12426361 -0.066697374 0.25643092 -0.2726481
-0.07091902 -0.23612417 -0.22601606 0.17568336 -0.42224538 -0.06104901 -0.16514266 -0.23345122
0.18372126 -0.32735762 -0.09551119 0.0784104 -0.16731557 0.058365624 -0.15425836 -0.122122094
-0.14267503 -0.11195868 -0.08666044 -0.037467543 0.18205798 -0.07790722 0.19366516 0.013711468
-0.01976429 -0.01578079 0.2339206 0.20864779 0.060496185 -0.23292089 -0.21783628 0.007177469
0.02518996 -0.058999017 -0.36864832 -0.1954569 -0.37026706 -0.2890518 -0.32322708 -0.3985508
-0.39825335 -0.1065655 0.048661508 0.011709992 0.025446111 -0.002091497 -0.07253204 0.1355371
0.0047884113 -0.00032550318 -0.0547081 0.0362087 0.14167961 -0.062181167 -0.026598329 -0.3441935
-0.049660075 0.14341709 0.13365284 -0.11540896 -0.24182792 0.074180216 0.10627488 0.026992386
-0.16731116 -0.09049406 9.722044e-05 -0.22586331 -0.2620913 -0.16938156 -0.14041203 0.05522616

sequential/conv2d_1/Conv2D f4 [32, 3, 3, 60]
00000000: 88f3 5dbd 52a7 99bd 557d b83d d4d6 5e3c
00000010: f941 473e f685 dbbd 9e45 87bd 82f0 7b3d
00000020: 65e8 373c 40c3 35be b4a3 0dbe 0f9d 0ebd
00000030: 455e be3d 9f12 203d a0b7 243d da6c 58be
00000040: 4080 843d e94f 773d fbe7 3e3e ebc7 4dbc
00000050: 0aa7 5ebd 9473 a5be fc4e 2dbe 578b d2bc
00000060: 5789 263e 70b0 7dbd a3f5 0b3e 3fbb 6f3c
00000070: f245 39be be4f e0bd ffa6 543e 065a d2bd
00000080: f067 663e cf5b b2bd 8b86 0bbe bbbd 05bd
00000090: 8de6 d33d f3e8 14bd a7b8 adbd 1b2c 9cbd
000000a0: 9716 ae3d 89de af3d a15a efbc 9a65 c93d
000000b0: ad49 cdbc 86b5 9abe 2bd0 35bd 51ab 4a3e
000000c0: 3fc2 133e eaff 8b3e d8ab 81bd f58f 2ebe
000000d0: a165 293c 87ad 0ebe 06f1 bbbd 388d ed3d
000000e0: ff97 0abd e5cf 65bd 2032 103e c398 533d
000000f0: 5ee8 dfbc a263 83bd dc42 a6bd dd76 1cbd
00000100: e24c 0e3e 7755 b8bd cf46 ccba e2b2 f2bc
00000110: 7f47 8b3a 1f0d 18be d077 babd 9e8b 143e
00000120: bf52 4bbd 3a87 0b3e 0bb6 073e cadc b639
00000130: 577a 953e 5ec3 93bd ec6e 9b3e 8f58 4f3e
00000140: 7130 00be 00f7 04be e245 a9be 9b49 f33d
00000150: 8e8b 2dbd a923 0dbd 81b5 473d f2de 2abe
00000160: 5ecf 4bbe cc6d 913d a859 d53d 56e6 70be
00000170: df9c b83e c243 0f3e 767f cfbe c185 44be
00000180: 147a 653e 5925 c6be 4ad9 75bd 495e a33d
00000190: 4064 d43d aaef 163e b44b e43d c0b1 ec3d
000001a0: 63d8 83be c66b 32be 903e 69bd fa24 ba3e
000001b0: 0c01 223e ac53 993e a444 48be 921e 83be
000001c0: f120 a83d 054a 7f3c 83cf 04be e434 003e
000001d0: c04a c8bb 6d0a 00be ab70 843e c8e2 afbd
000001e0: 347e 423e c171 72be 14ce 04bb 740e 21be
000001f0: 88fd 00be d83a c1bd 1280 ecbd af02 923d
00000200: aa52 6cbe 43e0 0bbe 2fbc dcbc c5c5 3d3e
00000210: c838 cabe 32ca b1bc 8b82 5e3d 33c7 cf3d
00000220: 646d 583e b7c7 39be f8b1 963e 2e1f 04bd
00000230: 9beb 003d 2f71 5ebe ce7a 48be 80e5 cb3d
00000240: db8f 5dbe f4f6 62be 7f52 ae3d 81d3 d9bd
00000250: 187b 0cbd c4ec 853d e087 e6bd 0846 0b3e
00000260: 948c 0d3e 6568 a23d 309f b1be 1220 3fbe
00000270: 2664 0c3e ad69 3ebe d07f cabd eb6a 9a3d
00000280: 1f35 01bd 3d3a a9bc 7e82 6cbd 84d7 1a3e
00000290: bb85 d6bd baa5 f1bc 5c59 2cbe 6b9a d13e
000002a0: 1cd3 7cbe 1e5d d7bd a128 3e3c 5fff 69be
000002b0: b29f 453e f610 a0bd 55da abbd 9754 52be
000002c0: a7a2 13bf 50ea d8bd f584 b5bd 4b24 eebe
000002d0: bd5c d03d 8773 9fbe dc13 903d 6e91 69be
000002e0: 0a52 50be 5ea5 f23d c3e5 86be 39f1 4c3d
000002f0: b992 00bf c297 2dbe ae3b acbd 4640 59bd
00000300: 18bb dabe 89b2 8cbd 79e4 a93c 0a32 bb3d
00000310: 2c86 53be ecd0 38be 38b4 ecbc 7044 5ebe
00000320: 3e64 05bd 4b09 30be 10ee a8be 6b00 b13c
00000330: 2d2f 5ebe 0c6e 0ebe 6d5b 00be ca79 8f3d
00000340: 7bd3 3fbe e65c 62bd 8ce4 26be f55a 7ebb
00000350: 6ee8 1c3d 986a f93c aabd e63c 6e76 93be
00000360: 5801 733e 830d c0bd a900 a1bc 88c7 e2bc
00000370: 87b4 083e db1c 033e e580 c7bc 2bf3 9dbd
00000380: 9230 6f3d 6c92 a1bd 8f21 693d 3e00 143d
00000390: c05f 19be bf1f a2bd 818a cbbb d037 0b3e
000003a0: 8483 633d 51de 3e3d aad7 84be 7b58 8ebe
000003b0: e9f6 24bf 3e77 0cbe 5951 293d 5e17 cebe
000003c0: ef2f 1ebd a511 db3c 4587 2fbc 38b7 9cbd
000003d0: 665b 1ebf 548e 163d 6ebc 2c3e e099 57bc
000003e0: 76b2 e5be c379 f43d e70b 34bd bc6c 923d
000003f0: a0c6 10bf f389 9bbd 4acd d6bd 172d 473e
-0.054187328 -0.07502617 0.0900828 0.013601024 0.1945876 -0.107189104 -0.06605075 0.061508663
0.011224841 -0.17750263 -0.13831979 -0.03481775 0.09295324 0.03908026 0.04021418 -0.21135274
0.06469774 0.060378943 0.18643181 -0.012559871 -0.05435852 -0.32314742 -0.16924661 -0.025701208
0.16263328 -0.061935842 0.13667922 0.014632045 -0.18093088 -0.109527096 0.20766829 -0.10271077
0.22500587 -0.08708917 -0.13625543 -0.032651644 0.103467084 -0.03635497 -0.08482485 -0.076256
0.085004024 0.08587367 -0.02921802 0.09833832 -0.025059545 -0.30216616 -0.044387978 0.19791915
0.14429568 0.27343684 -0.06331605 -0.17047103 0.010339172 -0.13933383 -0.09176831 0.11599201
-0.03383636 -0.056106467 0.14081621 0.051659357 -0.027332481 -0.06415488 -0.08118221 -0.038199294
0.13896516 -0.09000676 -0.0015585067 -0.029626314 0.0010626166 -0.14848755 -0.09104884 0.14506385
-0.04963946 0.13625804 0.13253038 0.00034878246 0.291949 -0.07214998 0.30358064 0.20248626
-0.12518479 -0.12984848 -0.3306113 0.118792735 -0.042369418 -0.034457836 0.04875708 -0.1668661
-0.19903323 0.0710102 0.10417491 -0.23525366 0.36057183 0.13990691 -0.40526932 -0.19191648
0.2240985 -0.3870037 -0.060021676 0.07976968 0.10370684 0.14739862 0.11147252 0.115573406
-0.25751027 -0.17423925 -0.05694443 0.36356336 0.15820712 0.2994665 -0.19557434 -0.2560926
0.08209408 0.0155816125 -0.12969784 0.12520176 -0.0061124265 -0.12503977 0.2586721 -0.08588177
0.18993455 -0.23676206 -0.0020264434 -0.1572817 -0.12596714 -0.09435052 -0.11547865 0.07129418
-0.23078409 -0.13659768 -0.026945202 0.18532474 -0.39496446 -0.02170286 0.054323714 0.10145416
0.21135479 -0.18142591 0.29432654 -0.032256298 0.03147469 -0.21722864 -0.19578096 0.09955883
-0.21636908 -0.22164518 0.08511829 -0.10636044 -0.03429708 0.065393 -0.11256385 0.13600934
0.13823158 0.07930068 -0.34691763 -0.18664578 0.13710079 -0.18595 -0.098876595 0.07539924
-0.0315448 -0.020657653 -0.057741635 0.15121275 -0.10474726 -0.02949797 -0.16830963 0.40938124
-0.24689907 -0.105158076 0.011606366 -0.22851323 0.192992 -0.07815735 -0.08391253 -0.20540081
-0.5767006 -0.105915666 -0.0886325 -0.46512064 0.101739384 -0.31142828 0.07035038 -0.22809383
-0.20343795 0.118479475 -0.2634717 0.050034735 -0.5022388 -0.16952422 -0.084098205 -0.05303981
-0.42720866 -0.068699904 0.020738827 0.091404036 -0.20656651 -0.18048447 -0.028894529 -0.21705794
-0.0325663 -0.17191045 -0.32994127 0.021606645 -0.21697684 -0.13909167 -0.12534876 0.07005651
-0.18733017 -0.055264376 -0.16298121 -0.0038811539 0.0383076 0.030446336 0.02816661 -0.28801292
0.23730981 -0.09377577 -0.019653635 -0.027683035 0.13350116 0.12803976 -0.024353454 -0.07712396
0.05839593 -0.07889256 0.05691677 0.036133043 -0.14977932 -0.07916211 -0.0062115793 0.1359551
0.055545345 0.046598736 -0.2594579 -0.2780188 -0.64439255 -0.13717362 0.041337345 -0.40252203
-0.03861993 0.026741812 -0.010713403 -0.07652134 -0.6185821 0.03675683 0.16868755 -0.013159245
-0.44862717 0.11937287 -0.043956663 0.07149646 -0.5655308 -0.07594671 -0.104883745 0.19450794
